supercon/trained_model_weights.pth (torch, 8350 bytes, 6 tensors)

weights f4 [2, 4, 3]
000000 b9 6f 95 bb 43 4d 22 ba f2 9c 11 bb 44 4d 4c bc
       -0.0045604375 -0.00061913225 -0.002221879 -0.012469593
000010 b4 50 9f bb bb 32 5c bb 67 7f c0 39 9d ad a1 3b
       -0.0048619155 -0.0033599574 0.00036716016 0.0049340264
000020 62 14 02 bc 7b e9 75 3b 32 73 66 3a 97 67 4b bc
       -0.00793943 0.0037523198 0.0008790969 -0.012414834
000030 9d e1 51 bb c6 57 0a bc 4d aa b4 bb 8a ef a2 3c
       -0.0032025345 -0.008443778 -0.0055134655 0.019889612
000040 6d ac 9b 3c 6a dc 8a 3c 20 45 93 39 4a dc e5 ba
       0.019003117 0.016950805 0.00028089527 -0.0017536965
000050 e7 48 91 bc 9b e5 e6 bb cf 51 81 bb 4c 91 9a 3c
       -0.017734958 -0.007046414 -0.00394652 0.018868111

feature_projector.weight f4 [4, 81]
000000 99 f9 ad 3d 77 df bc 3d 70 3d d5 bc fd 08 d1 3d
       0.084948726 0.0922231 -0.026030272 0.102067925
000010 d4 6e c7 bc a4 ac b7 3c b9 92 5d bd b1 a3 85 3d
       -0.02434484 0.022421189 -0.054095004 0.06525362
000020 99 99 c8 3d f0 f0 a6 bd 59 ca c5 3d 44 5b aa 3c
       0.097949214 -0.08151424 0.096577354 0.020795472
000030 bd 1e a8 3d 38 8b 76 3c fe 72 5b 3d e4 83 80 bc
       0.08208988 0.015047841 0.053576462 -0.01568789
000040 5b 6b af 3d fc 89 86 3c cb 76 54 bd 9c 03 e8 3c
       0.08565398 0.016423218 -0.051871102 0.028322034
000050 b5 af 51 bd 20 7d 55 bc e0 d8 38 bd 29 f4 96 3d
       -0.051192958 -0.01303032 -0.045128703 0.073707886
000060 26 a0 b3 bd 99 cf 51 bd 0a 83 00 bd a9 d2 88 bd
       -0.0877078 -0.05122337 -0.03137497 -0.06680805
000070 b8 d1 2b 3c 7b c0 e0 bd eb 81 cd 3d 1c 4d c1 bd
       0.010487013 -0.10974213 0.100345455 -0.094385356
000080 db ad af 3d 7c 7a 97 3c d2 c6 13 bd 31 9e 8c 3d
       0.08578082 0.018491022 -0.03607828 0.0686611
000090 dc db 8d 3c 47 db b7 3d a8 02 47 3c a4 87 0f bd
       0.017316751 0.08977371 0.012146629 -0.035041466
0000a0 d4 8f f4 3c 64 d5 f6 bc 76 89 3f 3d a9 2a cb 3d
       0.029853739 -0.03013105 0.046761952 0.09920246
0000b0 69 8a 83 3d 4a f6 46 bd 1b 5c 83 3d d4 dc a2 3c
       0.06422884 -0.048574723 0.06414052 0.01988069
0000c0 12 1f 67 3d 3e b2 8a bd 59 42 e1 bd 44 d6 2f bd
       0.056426115 -0.06772278 -0.10998983 -0.04292895
0000d0 52 8a ae bd db b7 ba 3d 16 16 03 3d 62 83 3c 3d
       -0.08522476 0.09117099 0.032003485 0.046023734
0000e0 1a ef 0f 3d 00 59 fd ba 3d 16 b2 3d 6a ae a1 bd
       0.035140134 -0.0019328892 0.08695648 -0.07894595
0000f0 70 3e e5 3b d9 50 9b bd 9e 55 0c 3d 72 bb 1c bd
       0.0069959685 -0.0758378 0.03426134 -0.0382647
000100 16 74 0b 3d 14 a3 bd bc 93 bb bc 3d 64 df 86 bd
       0.034046255 -0.02314905 0.092154644 -0.06585577
000110 b4 b6 87 bd cc b8 87 bd 57 ac cc 3d 92 aa 17 3d
       -0.06626645 -0.06627044 0.09993809 0.037027903
000120 2b f7 da 3d d4 cb bb bd f9 b4 e1 bd fe 07 b2 bd
       0.10691675 -0.091697365 -0.11020846 -0.08692931
000130 fa 12 99 bd 9a 56 38 3d de f6 22 3d db 14 bd 3d
       -0.074743226 0.045004465 0.039786212 0.092324935
000140 eb 07 6b bd 97 20 9b bd d6 78 71 3d 3c f5 37 bd
       -0.057380598 -0.075745754 0.05895313 -0.044911608
000150 e1 1b 8a 3d 10 ff d7 bc 17 2c 82 3d ab cd b0 bd
       0.06743599 -0.02636674 0.06356066 -0.08632978
000160 f5 ab 65 bd ae c0 0a 3d 84 6d c0 3c b0 11 e8 bc
       -0.056072194 0.03387516 0.023489721 -0.028328747
000170 91 a3 87 3d c1 b1 9a 3d 69 04 a5 bd 27 f8 72 bd
       0.06622995 0.07553435 -0.08057482 -0.059318688
000180 2d 5d d0 3d bc 91 19 bd 28 58 21 bd 79 2e dc bd
       0.10174022 -0.0374925 -0.039390713 -0.107510515
000190 76 50 82 bd 7c 60 e3 3c 48 49 70 bc ec 2d a5 bd
       -0.06363003 0.027755968 -0.014665909 -0.080653995
0001a0 80 ce 2a 3b 62 70 9b bd b0 0e c1 bd d9 9c 7a bd
       0.0026063025 -0.07589795 -0.094266295 -0.061184738
0001b0 cc 28 c7 bd ae e4 90 bd 71 77 e3 3d 0c eb ab 3c
       -0.09724578 -0.07074867 0.11106766 0.020986103
0001c0 36 3f 0c 3d cd 3c d4 bd d9 73 95 bd 84 7c 17 bd
       0.03423997 -0.10363159 -0.07297487 -0.03698398
0001d0 1c 55 8e 3c 22 3b c8 bd 58 18 44 bd f9 3a 88 bd
       0.017374568 -0.09776904 -0.04787478 -0.06651873
0001e0 00 70 a1 39 2a 59 29 bd 50 4c fc bb ca 32 9a bd
       0.0003079176 -0.0413448 -0.007699527 -0.075292185
0001f0 6a 31 9c bd 9e c1 84 bd 8a c8 1b bd f2 9a b3 bd
       -0.076266125 -0.06482242 -0.038033046 -0.08769788
000200 69 cc be 3d 78 a5 b4 bc bf c9 c3 3d f2 cd 0d 3d
       0.09316332 -0.022051558 0.095599644 0.034620233
000210 80 b1 c0 bd f9 79 9d 3d 64 71 fa bc b8 74 2e bd
       -0.094088554 0.0768928 -0.030571647 -0.04259178
000220 1c e3 bc bd 0e 3a e2 bd 4e 36 02 3d 1c d5 c6 bc
       -0.09223005 -0.11046229 0.03179007 -0.02427154
000230 6e 2f 31 3d 1c bf ba bd a1 f1 a8 3d bb 09 a7 bd
       0.043258123 -0.091184825 0.08249212 -0.08156153
000240 d0 2b 9d bc 2c 1e be 3c b2 f3 6a 3d 3d b5 b7 3d
       -0.01918593 0.023207746 0.057361312 0.08970115
000250 39 4b cf 3d 10 6f b4 bd bc 12 e5 3c 4e c1 43 bd
       0.101217695 -0.08810246 0.027963035 -0.04779177
000260 38 7e 47 bc b6 52 aa bd 5d 45 cf 3d b7 03 a7 bd
       -0.012176089 -0.08316557 0.10120652 -0.081550054
000270 16 3c 73 3d ae f1 1f 3d 1e e4 13 3d d9 0d 76 bd
       0.059383474 0.039048843 0.03610622 -0.0600718
000280 43 d6 ce 3d 8c 05 c8 3c 98 2e 6a 3c d0 88 c8 bd
       0.10099461 0.024416707 0.014293335 -0.0979172
000290 e6 0c 3f 3d 54 8d 88 bc 59 7f 50 bd 43 75 c3 3d
       0.04664316 -0.016668953 -0.0509027 0.0954385
0002a0 d4 ee ca 3c 60 cd 7b bd 75 59 66 bd 90 df ad bb
       0.024772085 -0.061475158 -0.056237657 -0.0053061917
0002b0 ce 1d 7e 3d b0 97 e8 bc 66 d6 81 bd 7c d9 1b bd
       0.062040143 -0.028392643 -0.063397214 -0.038049206
0002c0 44 00 aa bd b2 4e 22 3d 1d 23 b0 3d e0 3a d6 bd
       -0.08300832 0.03962583 0.08600447 -0.10460448
0002d0 54 66 d3 3c 4e 1b 6b 3d cc 0c a5 3c 88 13 22 bd
       0.02580563 0.057399087 0.020147704 -0.039569408
0002e0 aa 8a 6d 3d ba 2a 6f 3d ae 2d 2a 3d 10 f2 9f bc
       0.05799357 0.058390357 0.04154747 -0.019524604
0002f0 2c 07 f1 bc b8 c0 42 3c 64 cb a0 bc a4 9f 07 bd
       -0.029422365 0.011886768 -0.019628234 -0.03311123
000300 81 74 91 3d a7 8f c3 3d 20 38 34 bc c0 cb cb bc
       0.071022995 0.09548884 -0.010999709 -0.024877429
000310 00 84 d4 3a 20 64 d9 bb e4 d3 da 3c 2c 13 ff 3c
       0.0016213655 -0.0066342503 0.026712365 0.031137072
000320 cb ad ce bd 04 f4 27 bd 99 a1 bf 3d 72 4a 31 3d
       -0.10091742 -0.041004196 0.09356994 0.043283887
000330 c0 16 b5 bb ce 31 89 bd 3a 38 8b bd 34 d6 cb bd
       -0.0055263937 -0.066989526 -0.06797834 -0.099529654
000340 60 59 14 bd 62 b1 19 3d 27 18 91 3d a2 1f 52 3d
       -0.036218047 0.03752268 0.07084685 0.0512997
000350 79 25 c9 bd e7 d7 88 bd f0 a5 8f bc 31 20 dc 3d
       -0.098216005 -0.06681805 -0.01753518 0.107483275
000360 a4 ab 83 3c 90 b8 eb bc 52 49 3c 3d ea 57 2d bd
       0.016073056 -0.02877453 0.04596836 -0.04232017
000370 60 49 93 bd 03 17 a6 3d 99 f0 4e bd 24 78 b6 bc
       -0.071917295 0.08109858 -0.05052242 -0.022274084
000380 8d 5f e2 bd d7 4b 98 3d 6b 67 ac 3d 4a dd 25 3d
       -0.11053381 0.0743634 0.08418163 0.04049424
000390 2a ab 9e bd 6b 95 e0 bd db d0 b8 bd 31 b0 a9 3d
       -0.07747491 -0.10965999 -0.09024211 0.08285559
0003a0 62 80 5a 3d 31 7d bf 3d 42 6b 6e 3d c4 5e e6 3c
       0.05334509 0.0935005 0.058207758 0.02812136
0003b0 c0 9d 8e ba b0 0e ad bd 99 f6 c2 bd 02 d8 d4 bd
       -0.0010880753 -0.08450067 -0.09519691 -0.10392763
0003c0 22 4e 3a 3d eb 71 5f bd 40 2f b7 bc 9c f5 82 bd
       0.04548467 -0.054552 -0.022361398 -0.063945025
0003d0 2c dd a5 bc 5a 29 a0 bd 39 b0 94 bd 1e f7 16 3d
       -0.020247065 -0.07820387 -0.07260174 0.036856763
0003e0 e4 41 07 bd d9 7a 8c 3d ee 00 12 bd 64 ed a6 bd
       -0.033021823 0.06859369 -0.035645418 -0.081507474
0003f0 40 99 a0 bc 2b 9d 5c bd c8 3c 0b bd c4 a1 d8 bd
       -0.019604325 -0.053860825 -0.033993512 -0.10577729

feature_projector.bias f4 [4]
000000 a2 fe 8f bd 30 79 b6 bd d2 80 9b bd cb 91 e0 bd
       -0.07030989 -0.089098334 -0.0759293 -0.10965308

post_net.0.weight f4 [64, 4]
000000 84 42 05 bf a0 ff 2c 3c 69 5f ee 3e d0 b3 b6 3e
       -0.5205462 0.010558993 0.46557167 0.3568406
000010 4e 0d 95 be 88 ec 84 bd 10 b8 bc be 34 00 77 be
       -0.29111713 -0.06490427 -0.3685918 -0.24121171
000020 4d 0f 03 3e 6a 79 52 3e eb ce bd 3e b9 2b 13 bf
       0.12798806 0.20554128 0.37071928 -0.5748859
000030 94 b4 85 3e 6d 70 be be 98 1b 27 3e b0 2b f4 3e
       0.26114333 -0.3719515 0.1631912 0.4768958
000040 00 12 e6 3b 3e e9 e8 3e 0c 20 da be 28 90 43 be
       0.0070211887 0.4549045 -0.42602575 -0.1909796
000050 84 6d 87 3e ee 6e e4 bd 8a b0 38 be eb eb c1 be
       0.2645074 -0.11153971 -0.18036094 -0.37875304
000060 74 91 ce 3e 44 5a 04 3e 05 ce ec 3d 77 0f 0f bf
       0.40345347 0.12925059 0.115627326 -0.5588297
000070 d2 ce cf be 50 83 5d 3d dc b1 17 3e 80 65 6c be
       -0.4058748 0.054080307 0.14813942 -0.23085594
000080 07 49 5d be 93 9b a1 3e 8e 81 10 3c af f1 95 3d
       -0.21609889 0.31564006 0.008819951 0.07321488
000090 fb b0 1b 3e 4c 29 99 be f1 9d 0c bf bb 6c 87 be
       0.15204231 -0.2991432 -0.549285 -0.26450142
0000a0 5a 21 82 be f4 83 1f 3e 78 0c 15 be 44 4e 48 be
       -0.2541607 0.1557768 -0.14555538 -0.19561106
0000b0 83 aa d3 3e 17 63 2a 3e 68 57 9d 3e 3c 80 43 be
       0.41341028 0.16639362 0.30730748 -0.19091886
0000c0 90 22 51 be 44 2e 3c 3e 02 91 aa be 26 59 a7 be
       -0.20423341 0.18377024 -0.33313757 -0.32685202
0000d0 e0 d5 c5 bc fc 44 3b be 96 e9 bf be 44 d9 97 3e
       -0.024149835 -0.18288034 -0.374829 0.29657948
0000e0 9e dd cd 3e e0 1d a6 3d c0 4a b2 bd 3a 20 ed be
       0.40208143 0.08111167 -0.08705664 -0.4631365
0000f0 8e fc 77 be fc b3 89 3d 72 ed 33 3e b6 71 fc bd
       -0.24217436 0.067237824 0.17571047 -0.12326376
000100 21 6c 71 be 67 27 ab 3e 07 3f cf be 2f 56 04 3f
       -0.23576404 0.334285 -0.40477774 0.51694006
000110 04 a2 46 be 80 c3 fa 3b d0 5b ca bd 20 4c 78 3d
       -0.19397742 0.0076527 -0.09880793 0.060619473
000120 8a a7 83 be 3e ce a0 3e ff c7 85 bd 95 54 d7 3e
       -0.2571376 0.3140735 -0.06532287 0.42056718
000130 8c 36 bc 3e 53 d2 9c be 68 db e9 be ea e0 cc 3e
       0.36760366 -0.30629215 -0.45675206 0.40015346
000140 ec 9a c8 3e d6 77 c3 be 30 51 1e bd c6 72 fc be
       0.39180696 -0.38177365 -0.038651645 -0.49306315
000150 b6 8f d1 be 28 c7 c5 3d b0 35 08 3e 90 11 d9 3d
       -0.40929955 0.09657127 0.1330173 0.10599053
000160 6b c5 c3 bd 9c 7d fb 3e e2 93 4f 3c 08 8c 76 bf
       -0.09559139 0.4911927 0.012669535 -0.9630742
000170 05 9d d6 bd d1 af 2b 3d 74 5a ca 3d bd 6b cb be
       -0.10479168 0.04191572 0.09880534 -0.39730635
000180 6c e4 3f 3e 24 c9 82 be 82 b8 d4 be 40 d4 8b be
       0.1873948 -0.25544083 -0.41547018 -0.2731037
000190 86 53 f4 3e 08 f4 ba 3e 7f e2 cc 3e 10 ed 23 3e
       0.47719973 0.36514306 0.40016553 0.16008401
0001a0 f9 19 9c 3e 15 37 af bd 12 3f 9d be 34 7b 9a 3e
       0.30488566 -0.08555428 -0.3071218 0.30172122
0001b0 a0 a7 84 be 02 c4 ac be c0 7f 23 be 58 e5 d6 3d
       -0.25909138 -0.33743292 -0.15966702 0.104929626
0001c0 41 c7 53 3e f1 96 5a be 05 2d ce be 26 26 62 3d
       0.20681478 -0.21346642 -0.40268722 0.055212162
0001d0 18 e5 96 be f6 ab a6 be c4 70 85 3e 28 04 ac bd
       -0.2947166 -0.3255307 0.26062596 -0.0839923
0001e0 a8 c0 be 3e b2 4a b1 3e 2f 29 d6 3c fa 32 06 bd
       0.3725636 0.346273 0.026142685 -0.03276346
0001f0 7d b5 93 3d 4f b0 bf bd 22 ac 0f be 2f 86 30 be
       0.072123505 -0.093598 -0.14030507 -0.17238687
000200 e2 69 03 3e 35 e2 ba 3e cf 56 4d be e3 45 99 be
       0.1283336 0.36500707 -0.20052646 -0.29936132
000210 10 fa f7 bd 10 5c 77 be a0 1e ae 3d 3e 17 bf 3e
       -0.121082425 -0.24156213 0.08501935 0.3732242
000220 73 17 04 3f 4b 0b 9d 3e d7 fe 3c bf b6 0e 02 be
       0.5159828 0.30672678 -0.73826355 -0.12700924
000230 20 13 e2 3d 8c 1e de bd 9a 71 60 3c 80 b7 b1 bf
       0.11038804 -0.1084567 0.01369896 -1.3884125
000240 78 5b 1f 3e 96 4b c3 be 8e fb a1 be 7c d5 d4 be
       0.15562236 -0.38143605 -0.31637233 -0.41569126
000250 1c 58 d7 3e 6c 16 11 bf 63 e3 8e 3e d7 82 fd bd
       0.4205941 -0.5667484 0.27907857 -0.12378471
000260 33 c9 92 bd b3 fa b6 3e 0f 2b a2 3c e9 49 1a 3f
       -0.07167282 0.35738143 0.019795923 0.6026903
000270 5c 88 b2 3e 56 9d 07 bf 4b 82 1f 3e e6 6d b0 bd
       0.3486966 -0.5297445 0.15577047 -0.086147115
000280 34 ef 14 3e 3f d6 1d 3b 94 f9 0e 3e d8 1f c8 be
       0.14544374 0.0024084 0.13962394 -0.39086795
000290 f0 21 e1 bd e5 80 bf 3e 83 76 85 3e 57 0f 3a be
       -0.10992801 0.37403026 0.2606698 -0.18169914
0002a0 f7 93 ad be b0 37 3b 3d b9 6e 13 bf 1a cf a5 3e
       -0.3390195 0.045707405 -0.57590824 0.32384568
0002b0 24 76 65 be fe b0 ec bd 9a 13 01 bd 02 be 1b 3c
       -0.22408348 -0.11557196 -0.031512834 0.009505751
0002c0 84 d2 ec 3e 1a 4c 99 bc 86 02 70 3e d2 ef 7d 3e
       0.4625436 -0.018713046 0.23438463 0.24798515
0002d0 f2 ab ce 3e e8 d1 30 be 40 06 e5 bd 8c c0 76 3e
       0.4036556 -0.17267573 -0.11182833 0.24096888
0002e0 50 b5 0b be 4c c0 6f 3e 00 b6 df bd f2 a1 ad be
       -0.13643384 0.23413199 -0.109233856 -0.33912617
0002f0 b7 84 fe 3d 1c 04 5a 3d 43 ce 49 3e 61 f4 0c 3f
       0.12427657 0.053226575 0.19707589 0.5506039
000300 0f 6f ad 3e 27 7a d1 3e 57 34 15 bd a5 11 14 bf
       0.33873793 0.40913507 -0.03642687 -0.57839423
000310 8c c5 5a be 99 3d e5 be a9 65 9b be 1c 8a c6 be
       -0.2136442 -0.44773558 -0.30350998 -0.38777244
000320 54 aa eb be 84 30 ec be 56 f9 98 be 9c 5f fc be
       -0.46028388 -0.46130764 -0.29877728 -0.49291694
000330 c1 8d c2 be 84 69 2a 3e db 37 c1 3e 1d 8a e3 bd
       -0.37998775 0.16641814 0.37737927 -0.111103274
000340 10 ee 14 be 2a b1 88 3e 1c 9b 7c be 1c 17 72 be
       -0.14543939 0.26697665 -0.24668545 -0.23641628
000350 f9 d7 2f 3e 0a 6e f2 be 7f c8 4e bd 31 c1 e2 3e
       0.17172231 -0.47349578 -0.050484177 0.44288018
000360 28 9a af 3d 38 3c 0b 3e 96 17 95 be 00 0b e2 bb
       0.08574325 0.1359719 -0.29119557 -0.006898284
000370 93 3a 33 bd 31 e4 de 3d 45 e8 39 3e 4d 1b 00 3f
       -0.043757033 0.10883368 0.1815501 0.5004166
000380 d8 a1 cb be f8 6e f2 bd 03 6e 89 be ae 1c 08 bf
       -0.39771914 -0.11837572 -0.26841745 -0.5316876
000390 ab a3 27 3d 87 6d 2e bf c6 70 c7 3e 1b 39 50 3d
       0.04092757 -0.68135875 0.38953227 0.05083571
0003a0 28 f9 89 be be c7 85 3e 1a 49 f2 be 8c 0a 46 be
       -0.26947904 0.26128954 -0.47321397 -0.19339961
0003b0 2c dd 93 bc 87 16 01 bf 3b 50 74 be 02 d9 24 be
       -0.018049799 -0.50425 -0.2385873 -0.16098407
0003c0 77 56 b1 3e ab d4 be 3e 05 d3 84 3e 34 10 fb be
       0.3463628 0.37271628 0.25942245 -0.490358
0003d0 c0 b6 d1 be fc a1 d0 3e 57 4d 0f 3e 51 85 68 3d
       -0.4095974 0.40748584 0.13994347 0.056767765
0003e0 80 94 8a 3d 12 bf cd be 08 f3 2a be 24 6e f6 3e
       0.067666054 -0.40184838 -0.16694272 0.48130906
0003f0 28 8d fc bd e0 78 cd bc 94 90 d4 be 4e 35 8f be
       -0.12331611 -0.025082052 -0.41516554 -0.27970356

post_net.0.bias f4 [64]
000000 b4 bc 28 be 4e 04 9f be e0 7c d9 bd b3 91 e8 3d
       -0.16478235 -0.31057972 -0.10619521 0.11355915
000010 d4 69 fa be 1c 47 88 3e 7b 37 ae be d4 e1 79 be
       -0.48908865 0.26616752 -0.34026703 -0.24402553
000020 12 c1 cc 3d 75 cc 40 3f 1c ef 0b be 17 06 8e be
       0.09997763 0.75311977 -0.13665432 -0.2773902
000030 00 7c e7 be 24 02 84 be be 29 e0 be 93 ad 32 be
       -0.45211792 -0.25782883 -0.43781847 -0.17449026
000040 fe 55 1e bd 16 d7 ef be ee 57 9f 3e 90 ad 44 3e
       -0.038656227 -0.46843785 0.31121773 0.19206834
000050 32 9c fa be 50 8c 74 be 33 3f fa 3d df 3a 38 be
       -0.48947293 -0.2388165 0.122190855 -0.17991208
000060 10 2f 5f bd 0f 05 5e be 8a 10 a1 3e 82 1a 8f be
       -0.05448824 -0.21681617 0.3145793 -0.2794991
000070 9f 2d c4 3e 40 24 04 3d cf 15 eb 3c 7c 17 bc 3e
       0.38316056 0.032261133 0.028696923 0.36736667
000080 35 50 3c be 7c c0 91 be cb 85 bd bd f3 7f d0 3e
       -0.18389972 -0.28467166 -0.092540346 0.40722618
000090 e2 f2 bd be 40 c0 80 3d 37 f9 2b bf c1 13 81 3e
       -0.37099367 0.06286669 -0.67177147 0.25210384
0000a0 69 1b 47 3e f6 18 7e bc 73 66 94 3e c8 9d a1 bd
       0.1944405 -0.015508881 0.28984413 -0.078914225
0000b0 50 8c 91 3e a4 a7 ca be 80 60 96 bd c3 35 fe 3d
       0.28427362 -0.39581025 -0.07342625 0.12412598
0000c0 23 fb 03 3f c5 b4 f0 3d 1a 28 ba be 0b 64 99 3e
       0.5155508 0.11753229 -0.3635872 0.2995914
0000d0 a8 59 e4 bd 9a c9 75 be 4e ae e8 be d2 de 2e be
       -0.11149913 -0.24002686 -0.45445484 -0.17077187
0000e0 30 38 2c 3e d8 7c 69 bc b4 1b 95 be cb 9f 98 3d
       0.16818309 -0.0142509565 -0.29122698 0.07452353
0000f0 ce 7c 3c be 88 56 b7 3e 46 32 de be 70 ba 21 be
       -0.18406984 0.35808206 -0.4339773 -0.15793777

post_net.2.weight f4 [1, 64]
000000 aa 34 85 3e 1c a4 49 bd fd c4 9d bd f5 2f d7 3d
       0.26016742 -0.049228773 -0.07703588 0.10507194
000010 20 fa ab 3c 3d fb b7 3e 48 a8 8a be 66 d9 93 3d
       0.020993292 0.35933867 -0.27081513 0.072192
000020 ee 5d 87 3d 99 1f 5c 3f 0e 4a 8f bd 88 6d 61 3d
       0.066097125 0.85985714 -0.06996547 0.055036098
000030 72 13 9b 3d 84 66 6f bd 00 54 74 bd 8d 75 37 bd
       0.07572068 -0.058447376 -0.05965042 -0.04478984
000040 1a ff 8c 3e 28 80 cf bd d9 eb 51 3d 9d 29 90 bc
       0.27538377 -0.10131866 0.051250312 -0.017597968
000050 d2 69 de bd 3c 85 0b 3d e7 73 96 be a3 57 61 bc
       -0.108600274 0.03406261 -0.293853 -0.013753804
000060 e0 e3 92 3d 41 fb ae bd 1e ba 68 3d 3e b1 d6 3d
       0.0717237 -0.08544017 0.05681812 0.10483025
000070 0a c7 a8 bd 5a f9 e9 bd 3c a7 f6 bc 9d fc 74 bd
       -0.08241089 -0.11424513 -0.03010904 -0.059811223
000080 62 61 d9 3c 44 5d 90 3d d9 05 45 3f 11 2d 80 bf
       0.026535694 0.07049039 0.7696205 -1.0013753
000090 80 c1 3f bd a7 3a 99 bd 36 56 48 3f 24 3a 06 be
       -0.046815395 -0.0748189 0.7825655 -0.13108116
0000a0 f7 44 3d be 4b 32 9b bc dc 23 00 3e 64 5a 2d bd
       -0.18483339 -0.01894488 0.1251368 -0.04232253
0000b0 fb 3c c2 bd 4e 69 8f 3d 92 1e 8a 3d 28 9e dc 3d
       -0.09484287 0.07002507 0.06744112 0.107723534
0000c0 86 18 17 be e1 71 b3 3c 18 53 83 3d d5 a7 6d 3d
       -0.14755449 0.021904888 0.06412333 0.058021385
0000d0 bc 2c 99 3d 8d 13 ad 3c 04 be 28 3d 10 3e 23 3e
       0.074792355 0.021127487 0.041196838 0.15941644
0000e0 4a b6 d5 bc 35 58 d4 be 44 10 b3 3d 7c 7e df bb
       -0.026087899 -0.41473547 0.08743337 -0.006820498
0000f0 03 e1 88 bd a6 f9 82 3d 1c 8c 21 3d 70 69 25 3d
       -0.066835426 0.06395273 0.03944026 0.040383756
